cartpole_policy_128_64nn.pth (torch, 38922 bytes, 6 tensors)

layer1.weight f4 [128, 4]
00000000: e392 fe3e 3bfc 85be 564f 043e 09ab 19be
00000010: 29af d0bd f038 b73e ca6a 3a3f 22cc 6ebe
00000020: 3c79 49be d846 4d3e ec01 15be 9cf7 c73d
00000030: b181 a93e 48b2 85bd 7066 bf3d af5f b53c
00000040: 7a98 c03e 1103 28be 07e2 4cbe 9571 92bd
00000050: 13ca 393f 7c6d fe3e 19f7 3b3f 88ad b33e
00000060: 46a6 f5bd d7df 9abe 167d b63e be97 a4be
00000070: 4d67 16bf 42d1 2f3b 9a7a 033f 1e59 813e
00000080: b068 573e 7730 dc3e fe82 0b3f 9219 af3d
00000090: 079a 9dbe bd64 8ebe 9e90 42bf be51 dcbe
000000a0: fdbb f1bd a2f5 193e 7664 4dbe a5eb a5bb
000000b0: 271f 193f 409b 3e3f eaf8 213f 33e1 0a3f
000000c0: ffed f93e 831d 3fbe c3a8 8bbd 68c5 8abe
000000d0: b136 cf3d 60a8 e0be 7fda dabe f9eb fcbe
000000e0: 94c3 efbe 58bf 2abc e8f4 333f cdba 013f
000000f0: 071a 823e fd35 2abb 8bd8 1cbf 7f0f d5bd
00000100: cef2 97be 1de3 903e a189 013f ee26 9c3e
00000110: aa85 f33e 3c14 0b3f a9ac 473f 5f14 f63e
00000120: a9d2 e83c 25b2 9dbe e2ee f7be ea20 25be
00000130: 033a 193f 7447 2d3e ee48 dfbe 5096 e13c
00000140: 7c89 dabd 0da9 123f 699c bb3e ef7b ec3e
00000150: 3459 b73c ce85 0fbe c0e6 023f 936b 293e
00000160: 2a91 dabe f42c 093f 05d2 563f 8736 fa3e
00000170: 9e2a 97be 47ef fdbd 2f11 b0bd f357 4e3d
00000180: f8df 2c3e e883 fa3e e507 8a3f 5f03 e33e
00000190: 684e 83be e840 fabd a69b 1bbe 7be9 9abe
000001a0: 08af 60be 0704 d43e dcdc 8abd 0554 223e
000001b0: 03bc 8dbd 8795 b93e e44b 08bf 0069 39be
000001c0: 54bb 30be ff53 17bc 7bb3 20bc c920 30be
000001d0: fc7e 103f bd2d 913e fbc4 793f b4f4 753e
000001e0: a58d 623f 1585 c73e fa70 dc3e d4e8 a13e
000001f0: d497 ccbe dfc6 083b 1906 323f cdbe 9f3e
00000200: 55b5 3b3f 9862 c33e 84b0 c63e f1e0 523e
00000210: d0cb bd3e 7a02 d8bd aa91 0ebf 2e6a a33d
00000220: 7f4a 503f ee67 e63e e2e3 03bf ad6c b9be
00000230: 7392 e1be dc66 ee3c 6790 d43e 1a94 2abe
00000240: 7f6f da3d 461b 363e ad41 c83e 99ff d2be
00000250: 0cba 91be eb57 94be fced 8e3e db5c d8bd
00000260: 7442 20be 47a2 3bbd 2719 ac3e 6c9d 3dbe
00000270: 1532 0fbf f2a7 acbe bc47 4e3e c123 243e
00000280: b152 803f 7ba1 e13e eb14 49be 2f3e 413e
00000290: d7bf 16bf a2f3 ecbe 234d d4bd 000c 95bd
000002a0: 1b79 91be 86a0 efbe 04f7 1abf 16a3 efbe
000002b0: 1d24 6ebd 1a70 203f 0d3f a23f 0aa0 093f
000002c0: 3e9c 8fbe 7e21 4bbe cc97 96be 5318 9f3e
000002d0: becb 4d3f 91da abbe 16a4 fabe 8f9a c1be
000002e0: 1021 9c3e 1f07 153f bd82 973f f3d0 fd3e
000002f0: 8158 d7bd 5acf 8b3e c916 713d e757 b93e
00000300: e5b9 b73c 7b7f fbbd f50f f1be 3df8 8b3e
00000310: 9d63 b33d f185 653e 06ca 8dbe cb08 bf3e
00000320: a4f1 e2bd 4f35 803e 8d87 00bf ea03 bcbd
00000330: 3d13 1e3e e5aa 90bd 493a b73d bf40 2e3d
00000340: cec4 7d3f 63cb ea3e 5a79 7dbe f894 8dbe
00000350: a4dd 0bbf 82d6 5e3e e790 363f d809 023f
00000360: d848 02bf 89f4 dfbe 2a9a 30bf e429 d1be
00000370: 6223 33be 6992 be3d 7580 cabd eefe 23be
00000380: cf0e bfbc c236 6d3e 0781 c43c 2458 69be
00000390: 47b5 293c 4a74 283d 73dc 393e 105f 75be
000003a0: 3382 623e 8b06 aabe ab3e 12bf 471d 96be
000003b0: f936 1b3d 5a40 923d 89d3 2c3f 2be7 1fbe
000003c0: a3b3 25bf 5b32 86be 28c6 2dbf 91d3 d63e
000003d0: c1c4 74bb 361f 92be 8666 9b3e 1ed7 bb3e
000003e0: 92e7 a7be b13b eebe 335e 4bbf dd10 b2be
000003f0: ad45 ebbd 14ba 04bf b985 adbe ba38 6abe
0.4972144 -0.26169 0.1292089 -0.15006651 -0.10189659 0.35785627 0.728192 -0.23320058
-0.19675153 0.20046556 -0.14551514 0.097640246 0.3310676 -0.06528145 0.0934571 0.022140352
0.3761633 -0.1640742 -0.20008098 -0.0715057 0.72573966 0.49692905 0.73423916 0.3509333
-0.11994605 -0.302489 0.35642308 -0.3214702 -0.58751374 0.0026827608 0.5135895 0.25263304
0.21036029 0.43005726 0.54496753 0.08549799 -0.30781576 -0.27811232 -0.7600192 -0.43031114
-0.11803434 0.15035108 -0.20057854 -0.0050634914 0.5981316 0.7445564 0.6327044 0.54249877
0.4881439 -0.18663602 -0.06819298 -0.27103734 0.101178534 -0.4387846 -0.42744824 -0.49398783
-0.46828902 -0.0104215965 0.7029557 0.5067566 0.25410482 -0.002597212 -0.6126792 -0.10403346
-0.29677433 0.28298274 0.5060063 0.3049845 0.47562915 0.5432775 0.77997833 0.48062417
0.028420763 -0.30799976 -0.4842444 -0.16125837 0.59854144 0.16921788 -0.43610328 0.027537495
-0.10670754 0.572892 0.3664277 0.46188304 0.022381403 -0.14015886 0.51133347 0.16544943
-0.42688876 0.5358422 0.83914214 0.48869726 -0.29524702 -0.12399154 -0.085970275 0.050376844
0.16882312 0.4892876 1.0783659 0.4433851 -0.25645757 -0.12219411 -0.15196094 -0.30256256
-0.21941769 0.41409323 -0.06780407 0.15852363 -0.06920626 0.36246893 -0.532408 -0.1810646
-0.1725896 -0.009236335 -0.0098084165 -0.17200007 0.5644376 0.28355208 0.97566193 0.24019128
0.8849738 0.3896872 0.43054944 0.31622946 -0.39959586 0.002087049 0.69540554 0.31200257
0.73323566 0.3816116 0.38806546 0.20593621 0.3706956 -0.10547347 -0.55691016 0.079792365
0.8136367 0.45001167 -0.51519597 -0.36215726 -0.44057044 0.029101782 0.4151642 -0.16658059
0.106657974 0.17783841 0.39112607 -0.4121063 -0.28462255 -0.28973326 0.27915943 -0.10564586
-0.1565035 -0.045809057 0.3361294 -0.18517083 -0.55935794 -0.33721882 0.20144552 0.16029264
1.0025235 0.44068512 -0.19636886 0.18871377 -0.58886474 -0.46279627 -0.10366275 -0.072776794
-0.2841271 -0.46802157 -0.60533166 -0.46804112 -0.05813991 0.62671053 1.2675492 0.53759825
-0.2804889 -0.19836995 -0.29412687 0.31073245 0.8038901 -0.3356519 -0.48953313 -0.3781323
0.30493975 0.5821399 1.1836773 0.49573478 -0.10514928 0.27306634 0.05885962 0.36199877
0.022427509 -0.12280174 -0.47082487 0.27337828 0.08759234 0.22414376 -0.27693194 0.37311396
-0.110812455 0.2504067 -0.50206834 -0.09180434 0.15437026 -0.070638455 0.08946664 0.042542215
0.99128425 0.45858297 -0.24753323 -0.27652717 -0.5463507 0.21761516 0.71314853 0.5079627
-0.508924 -0.43741253 -0.68985236 -0.40852273 -0.17493966 0.09305269 -0.098877825 -0.16015217
-0.023322491 0.2316542 0.023987306 -0.22787529 0.010358161 0.041126527 0.18150501 -0.23962045
0.2211998 -0.33208117 -0.57126874 -0.29319212 0.037894223 0.0714118 0.6751028 -0.15615527
-0.6472723 -0.26210293 -0.6788049 0.41958287 -0.003734872 -0.28539437 0.30351657 0.3668756
-0.32793862 -0.46529916 -0.7944061 -0.3477849 -0.11487899 -0.5184643 -0.33891085 -0.22873202

layer1.bias f4 [128]
00000000: 4b25 ea3e d166 363f 251e 00be 4972 383f
00000010: d6b1 223f 562e 09be 35a4 3b3f ccda ecbe
00000020: 3436 e63e 83eb f6ba 958a 1a3f c158 20be
00000030: 7be9 393f be50 c2be 9b9a ef3e 836a c13e
00000040: 76c6 213f 17d8 2bbe b603 df3e 38e5 223e
00000050: 0c2f 06be 08ea b3be 97d6 88be 47f5 253f
00000060: 024e 0fbe 0fe9 4f3f 41c4 bebe ee4c 10bf
00000070: 03eb 293f df16 d3bd 2078 fe3d c96a f3bc
00000080: 5b35 b63d a09e 053f 964a 9abe 88c8 1c3f
00000090: 3b55 e73e 0c11 193f 5cd4 273f cd66 f1bc
000000a0: a6af 83be e083 93be aaee 96be 2931 21be
000000b0: 0550 383f dc9d 89be f637 f5bd 953a 3b3f
000000c0: 3f6b 0f3f c9da b43e 61d1 c3be 3715 e33e
000000d0: 3c83 0ebe ec84 c83d 3ab1 81be 470f 4b3f
000000e0: c133 bebe 66a6 fc3e fcf4 ff3e a74f 103f
000000f0: daa8 733e 785e f23e 0273 43be f6d3 e8be
00000100: 2fc4 da3e 22f7 4b3f 15e8 073f d55b 383f
00000110: 7450 3a3f 1405 b93e a3b1 1a3f 3719 573f
00000120: 3712 4cbe 439c bc3d 0e50 dcbe f696 583f
00000130: a6af 3d3f d132 a6be 1c06 253f 3940 0e3f
00000140: ad24 09bf 5a31 493f b142 763e d32f 89be
00000150: 9cce 503f bc7e df3c f990 433f 05da 4c3f
00000160: 970b 5fbe 063f 2e3f 29d9 003f 5ffb 3e3e
00000170: 1829 bbbd 5352 e6bd 6bc8 f93e caaa 473f
00000180: 9850 373f 3bc3 4d3f bacf 1d3f 6707 263f
00000190: f6f3 0e3f 9671 413f ba8f d7be 9906 e8bd
000001a0: a9aa e73e 94a0 363f 582e efbe a31c 9ebe
000001b0: 1182 bebe 74bb 0f3f 622d 263f 8eb5 ca3e
000001c0: 1f49 c9bc 0f79 c13d 3e6b d5be d49d ea3d
000001d0: ee05 893d 890b 13be d512 febd a84c a7be
000001e0: e8a3 2c3f a4f2 52be 7122 a7be bc37 dbbe
000001f0: b4e7 37be 2ab5 063f 6d94 353f 298b c93d
0.45731577 0.71250635 -0.12511499 0.72049385 0.63552606 -0.13396582 0.73297435 -0.4626068
0.4496323 -0.0018838499 0.6036771 -0.15658857 0.7262189 -0.37952226 0.46797642 0.37776574
0.6319345 -0.1678165 0.4355752 0.15907753 -0.13103884 -0.3513949 -0.2672622 0.6482739
-0.13994601 0.81214994 -0.37259105 -0.56367385 0.66374224 -0.10307097 0.12425256 -0.029714005
0.088968955 0.5219517 -0.3013503 0.61243486 0.45182213 0.59791636 0.6555841 -0.029467965
-0.25719947 -0.2881155 -0.2947896 -0.1574141 0.719971 -0.2687825 -0.11973564 0.73136264
0.5602302 0.3532317 -0.3824568 0.44352123 -0.1391725 0.09790978 -0.25330526 0.79320186
-0.3714886 0.49345702 0.49991596 0.5637154 0.2379488 0.473377 -0.19086841 -0.45474213
0.427278 0.7967397 0.53088504 0.72015125 0.7277901 0.36136687 0.604273 0.8402285
-0.19928823 0.09209492 -0.43029827 0.8460535 0.74096143 -0.32460645 0.6446245 0.55566746
-0.5357159 0.7859093 0.24048878 -0.267943 0.8156526 0.027282111 0.76393086 0.8002017
-0.21781765 0.68064916 0.5033136 0.18650578 -0.091386974 -0.11246171 0.4878572 0.7799498
0.7160735 0.80376023 0.6164509 0.64855045 0.55841005 0.75563943 -0.42101842 -0.113293834
0.4524739 0.7133877 -0.46715045 -0.30881223 -0.37208608 0.56145406 0.64913 0.3959164
-0.024571 0.09446918 -0.41683382 0.114558846 0.06690584 -0.14359869 -0.12405936 -0.32675672
0.674376 -0.20600373 -0.32643464 -0.4281596 -0.17959481 0.52620184 0.70929605 0.09840996

layer2.weight f4 [64, 128]
00000000: 98d0 253d b02c 62bd 632d 873c a46d 82bd
00000010: ba5c a83d 9776 cd3c 8bf4 abbd c903 633d
00000020: 405f d6bd 0236 203e f4dd 543d 9176 83bd
00000030: 36be ab3c dbb6 943e 743e 13bc 9367 f03d
00000040: 67ff 47bf b3e1 e03c c935 193e 0cd6 1e3c
00000050: dc2c 9c3d 036a 67bc 8197 0c3d e4e5 bcbe
00000060: 75e5 f53b 4082 84bd 8779 93bd 2545 293e
00000070: 9532 453d 9c73 54bd 6ec9 9dbd 3f58 5cbd
00000080: b8be c43c d9d9 fd3d bb8b e53d 41b0 a3bd
00000090: 7117 1dbd 2563 bbbe 4c0d 30bc 40c0 a2bd
000000a0: 438a 9a3e 3331 a4bc cff8 c33e 50c0 8bbd
000000b0: 9e94 263d 9b35 c23e 09b8 36bd 252d f3be
000000c0: 5b7d 493c f4a8 5fbc abdc 603e 1662 9fbe
000000d0: 59fd 393e ec02 c7bc 24e9 df3e 639e fd3c
000000e0: 5e48 863d 8732 983d 6620 d83d 4af0 21bd
000000f0: 72fc 94bd 151b 6f3d 581a f13c 923c 83bd
00000100: b16a 543d 1e50 d53c ec31 fd3d 6a1e 80bb
00000110: 3dd8 c0be 824c 09be 9d66 88bd 006a 9dbe
00000120: 1b2a 10bb 9b6a 8dbd 9a73 64bd 003b 57be
00000130: 4168 573d 171c 74bd 65f9 863a 9da2 3bbe
00000140: 76f8 023e 2e3f e7bd 7f1d 16bd 9fdb b03e
00000150: f71d 133d e128 a73c 2cbf d9be c4f5 17bc
00000160: ca69 1d3e ab9c dbba bdf6 473d eb05 25be
00000170: 5905 a83e 96aa 023d df61 e1b6 a8e3 463d
00000180: 1375 b439 f840 5bbd 0f56 9fbd 880d 2bbd
00000190: 91ba 9cbd 1d28 a0bc 933e 633d 7ee0 4cbd
000001a0: 68f9 a33c 7230 97be 0921 d93e 04c1 b4bb
000001b0: f7bf 973e c0b4 8fbe 1daf 3dbc 649d 343c
000001c0: 4850 613d 4f5d 6c3d 6077 493e 6650 9c3d
000001d0: f5b1 5ebe a87b 1a3e e948 3a3d d7f7 893d
000001e0: e8e1 33bd 9a75 ec3e 3aec 2b3e 5cb4 6a3e
000001f0: 5caf 20bd 3007 d1bd be3a 15be b75d 95bd
00000200: abc5 c63e bd95 753e 0327 66bd 3952 b73e
00000210: d1a4 843e 9bf8 12be 8b43 463e fa47 a2be
00000220: 1b95 613e 2cb4 5ebe 608e 9e3e ccda c0be
00000230: b6c7 983e 586e b0be 1dcc b73d 2a9d 593e
00000240: 6b42 9a3e 6a17 e0be e79c 823e 4bfd 353e
00000250: 2725 30bf 3ac6 57be 0eb2 babe 8f0e 7b3e
00000260: 8713 11bf 343e 463e 9677 2d3c 5b45 4ebe
00000270: 8c1e 7d3e 85b8 4dbe 98ca 83bd 6864 6f3e
00000280: 9b3e 5b3d 7613 753e fb03 8abc e0a3 863e
00000290: ff25 463e 683a 273e 80e7 643e af57 85bc
000002a0: 7996 dcbe 06f3 ebbd 66fe 01bf 89f4 b6be
000002b0: fcf8 1c3e 8f86 bbbe 0a69 acbe 5adc 643e
000002c0: 0e26 333e 4ce3 123e 3445 14be 6f29 8f3e
000002d0: fb48 343a cb47 e93d 7ee4 e5be febc 6f3e
000002e0: 3723 cfbd eff3 4c3e 7401 5a3e 2135 ae3e
000002f0: 5321 f53d 0061 903d b1a6 38bf 867b fcbe
00000300: a9f2 363e 1e30 413e c99d 6f3e c2bc 843e
00000310: 134d a73e 0982 853e 15d1 b93e 8746 6a3e
00000320: a218 62be 73cb 9b3c d454 d6bc a4ea 903e
00000330: 710d 7e3e 142c 09bd d6a4 313e 335b b43e
00000340: d32d dbbd f6aa 9c3e 74f1 ab3d fd51 e2be
00000350: 3642 a83e 0a4e c23d 15ac 903e 0a9a 663e
00000360: 196c 8ebe 87cb a13e 256d 613e 1c21 343e
00000370: 3bac f4be eb64 cdbe 7834 463e ee70 7d3e
00000380: 7cc9 893e 287d b93e d886 853e 6124 6f3e
00000390: 4f06 393e a9a0 863e 2721 f7bd 963f 0fbe
000003a0: 30c6 dd3d 2f69 a53e 662a 87be 862d 4ebd
000003b0: 392f 96be 5a38 743e 49c7 423e 05c6 573e
000003c0: 513a 183e c523 4ebd c982 b4be c6ce 5f3d
000003d0: 6627 623e 7610 85be f1d4 3cbf 06ae d8be
000003e0: fd1b 763e 81ba 4bbf cf0a 1fbe 6afa 09be
000003f0: 8915 42be 06d0 7b3e 41b9 cc3e 4cdd 0bbd
0.040482134 -0.0552184 0.016501134 -0.063685685 0.08220811 0.025080962 -0.08396252 0.05542353
-0.10467386 0.15645602 0.051969483 -0.06419099 0.020964723 0.29045758 -0.008987058 0.11738505
-0.7812409 0.027451372 0.14961924 0.009694587 0.07625744 -0.014124396 0.034324173 -0.36894143
0.00750416 -0.06470156 -0.07200914 0.16530283 0.048143942 -0.051868066 -0.07704435 -0.053795096
0.024016723 0.12395067 0.11208292 -0.07992602 -0.038352434 -0.3659908 -0.010745358 -0.07946825
0.3018361 -0.020042991 0.38275763 -0.0682379 0.040669076 0.37931523 -0.044609103 -0.4749538
0.0122979535 -0.013651121 0.21959178 -0.3112952 0.1816305 -0.024293385 0.4373256 0.030959314
0.06556772 0.07431512 0.105530545 -0.039535798 -0.072747126 0.058375437 0.029431507 -0.06408037
0.05185956 0.02603918 0.123630375 -0.0039098756 -0.37664977 -0.13408092 -0.06660197 -0.30744934
-0.0021997753 -0.06905099 -0.05577431 -0.210186 0.05258966 -0.0595971 0.0010297714 -0.18323751
0.12790093 -0.112913474 -0.036649223 0.34542558 0.03591725 0.020405235 -0.42528665 -0.009274904
0.15372387 -0.0016755065 0.048819292 -0.16115539 0.3281658 0.031900965 -6.7169162e-06 0.048556954
0.00034419502 -0.053528756 -0.07780086 -0.04176095 -0.07652772 -0.019550378 0.055479597 -0.05001878
0.020016387 -0.29529148 0.42408016 -0.0055161733 0.29638645 -0.2806759 -0.011577395 0.011023853
0.055008203 0.057706174 0.19674444 0.07632522 -0.21747573 0.15086234 0.04547969 0.06736725
-0.043916613 0.46183473 0.16789332 0.22920364 -0.039229736 -0.10206449 -0.1457319 -0.07293265
0.38822684 0.23982902 -0.05618955 0.35804918 0.25906995 -0.14352648 0.19361703 -0.3169554
0.22029535 -0.21748418 0.30967999 -0.3766693 0.29839867 -0.34459186 0.089744784 0.2125136
0.30128798 -0.43767864 0.25510332 0.17772405 -0.6880669 -0.21071711 -0.3646397 0.24517272
-0.5667042 0.19359666 0.010587594 -0.20143645 0.24718684 -0.2008992 -0.06435126 0.23378146
0.053526502 0.23933205 -0.016847601 0.26296902 0.19350432 0.16330874 0.22353935 -0.016277162
-0.43083552 -0.115209624 -0.50778806 -0.3573344 0.15329355 -0.36626098 -0.33673888 0.22349682
0.17494985 0.1434452 -0.14479524 0.279613 0.000687733 0.113906465 -0.44900888 0.23411939
-0.101141386 0.20014928 0.21289617 0.3402491 0.11969247 0.07049751 -0.7212935 -0.4931299
0.17866005 0.18866012 0.23400034 0.2592526 0.3267599 0.2607577 0.3629233 0.22878467
-0.22079709 0.01901791 -0.026163496 0.28304017 0.24809815 -0.0334893 0.17348036 0.3522583
-0.107021 0.30599183 0.08395663 -0.44203177 0.32863015 0.09487541 0.28256288 0.22519699
-0.27816847 0.31600592 0.22014292 0.17590755 -0.4778765 -0.40116057 0.19355953 0.2475011
0.26911533 0.362283 0.2607944 0.23353721 0.18068813 0.2629445 -0.1206687 -0.139891
0.10828817 0.3230681 -0.26399535 -0.050336383 -0.29332903 0.23849621 0.19021334 0.21071632
0.14865996 -0.05032708 -0.3525603 0.054640554 0.22085342 -0.2598912 -0.7376242 -0.4232027
0.24034114 -0.7958146 -0.15531467 -0.13474432 -0.18953528 0.24591073 0.39985088 -0.034146592

layer2.bias f4 [64]
00000000: 785a 66bd 448a 833e 12cb c0b9 cfa3 f73b
00000010: ad3d b03e 0ddd 00bd 16c1 b53d a645 52bc
00000020: fdaf c1bb 96af 36bc 9441 413d b771 e5bd
00000030: 9530 e3bc fc4a c83e d020 68bd e6b7 8a3e
00000040: 6b94 3f3e c264 ca3e 34cb b93e d49a 27bd
00000050: 954f bc3e 09d0 293e 31fd a53e f9e4 bf3e
00000060: 91dd f7bc dff9 5a3d e341 54bd adc4 a0bd
00000070: 43b6 2b3d 50f6 813e 88fe 823e e16d 193e
00000080: 3533 70bd e880 7f3e 2fe4 c8bc 50fd 603e
00000090: 1e2d b43c ce2d 853d b1a0 0c3e 7b32 823e
000000a0: f3a7 483e 885b 213e faa7 9e3e c4b1 b5bd
000000b0: d77a 88bd 1488 523e 5893 9f3e a366 cb3c
000000c0: 4841 a33c 1268 d03c 3041 96bd 0ca9 983c
000000d0: 20b7 383e fd82 723c 266b 193d 8087 ed3b
000000e0: 5b20 a2ba f4c6 703e cef7 0ebd 1ae5 71bd
000000f0: 97bb 6d3e 5a45 063e b302 f73a 099e 51bd
-0.05623862 0.25691426 -0.00036772393 0.0075573693 0.34422055 -0.03146081 0.08874719 -0.012833988
-0.005910872 -0.011150261 0.04718168 -0.1120333 -0.027733127 0.3911971 -0.056671917 0.27093428
0.1870896 0.39529997 0.36287844 -0.04091914 0.36779466 0.16583265 0.32419732 0.3747938
-0.030257018 0.053460952 -0.051820647 -0.07850013 0.041921865 0.25383234 0.25584817 0.14983322
-0.058642585 0.24951518 -0.024522869 0.21971631 0.02199417 0.06502877 0.13733174 0.2542914
0.19595318 0.15757573 0.3098753 -0.08871797 -0.06664055 0.20559722 0.31167102 0.024829214
0.01992859 0.02544025 -0.07336652 0.018635295 0.18038607 0.014801738 0.0374557 0.007248819
-0.0012369262 0.23513395 -0.034904294 -0.05905638 0.23216091 0.13112393 0.0018845409 -0.051176105

layer3.weight f4 [2, 64]
00000000: fbc5 b5be 48ce 793e 2f63 19bf bdc8 c6bd
00000010: 5dd6 fc3e 3dbd b1be 6f1a f73e f271 2dbf
00000020: a348 e2be e044 bbbd 83ad 96be 4ecc f5be
00000030: 9141 d83d a555 cf3e ca5b c4ba 7159 e43e
00000040: 4778 bb3e 7958 d03e 23da 903e b608 12bf
00000050: 8e9c 803e 2235 e63e 90ab d73e d17d b83e
00000060: b0d2 c0be b063 c0bd d31c c1be 0f48 1abf
00000070: 9dc5 8cbd 5e20 ad3e 5036 ae3e 02ba db3e
00000080: 09c2 00bd 00fa a53e ec20 b8bd aa5f dd3e
00000090: 5e19 a2be fa62 0abd f08c d03e 1766 9d3e
000000a0: 6bbe 613e fcfc 893e 48c6 a93e 4a41 23bf
000000b0: b8f3 c8bd 13c0 d83e 12e2 b83e 9181 74bc
000000c0: 1623 23be 69d5 45be 864e 183d 3316 1cbe
000000d0: 05be fb3e 3789 7f3d 7681 f8be 3a51 83bd
000000e0: 4d3c 4d3d 1cf7 e73e c353 99be fdaa 18bf
000000f0: 8133 5b3e 2b2f ee3e 1657 583d bf37 b43d
00000100: c8fe 8cbe afda bd3e 1bd5 b4be edca 013c
00000110: 8845 9d3e a84e 193d e3e6 c63e f95a a9be
00000120: 84d5 0fbf d4ef 383d d9f9 323e b25d d5be
00000130: 417f babd dc6d c43e 2ad1 cf3d 447c a33e
00000140: d934 c43e daac a43e 1774 d33e 6977 f8be
00000150: 6cf7 d73e ab2e db3e dac7 b53e 9065 923e
00000160: 5925 8abe cc10 ad3d 21a1 f1be 5353 ecbe
00000170: e44e 8f3b 5ced a43e 2ff9 063f 56c6 d03e
00000180: 2149 3fbd af6b bb3e 4f99 2a3d 722c 4c3e
00000190: ae9d 8abe 247f 02bd fb86 d93e c7d4 a63e
000001a0: aa8f d83e ab6b b13e ceae ef3e 5de9 45bf
000001b0: 710d d53d 95dd a03e 3dbc a73e e3a9 bbbd
000001c0: 13f8 d7be 30de e0be eef5 c63c e778 a7be
000001d0: ca04 ff3e d1e7 0fbd 71ce bebe 58e4 ecbe
000001e0: 3472 3d3d f7da 783e c70e b2be 4cdc 33bf
000001f0: 33dc 013f 2631 e33e 4313 7cbd 6bb0 a1bd
-0.3550261 0.24395096 -0.5991697 -0.097062565 0.49382296 -0.3471469 0.48262355 -0.6775199
-0.44196042 -0.09143996 -0.29429254 -0.48007435 0.10559381 0.4049503 -0.0014980969 0.44599488
0.36615202 0.406925 0.28291425 -0.5704454 0.25119442 0.44962412 0.4212308 0.3603349
-0.37660742 -0.09394014 -0.37717304 -0.602662 -0.06873629 0.33813757 0.34025812 0.4291535
-0.031435046 0.32417297 -0.08990654 0.43237048 -0.3165998 -0.033785798 0.40732527 0.3074195
0.22045295 0.26950824 0.3315909 -0.637715 -0.09812111 0.4233404 0.36109978 -0.014923469
-0.15931353 -0.19319691 0.03718426 -0.15242843 0.4916841 0.062386718 -0.4853627 -0.06411977
0.050106335 0.45305717 -0.29946718 -0.5963591 0.21406366 0.4652036 0.052817427 0.08799695
-0.27538133 0.37080905 -0.35318837 0.007921916 0.3071711 0.037428528 0.38848028 -0.3307722
-0.56185174 0.045150593 0.17478122 -0.41673046 -0.09106303 0.38365066 0.10147317 0.31930745
0.3832157 0.32163125 0.41299507 -0.48528603 0.42180955 0.42809042 0.35504037 0.2859311
-0.2698162 0.084504694 -0.47193244 -0.4615732 0.004373418 0.3221234 0.52723974 0.40776318
-0.0467006 0.36605594 0.041650113 0.1993883 -0.27073425 -0.031859532 0.42485794 0.3258421
0.42297107 0.34652457 0.46813053 -0.7730921 0.10402954 0.31419054 0.32760802 -0.09163263
-0.42181453 -0.43919516 0.02428719 -0.3270943 0.4980834 -0.035133187 -0.37266877 -0.46267962
0.04625149 0.24302278 -0.347769 -0.7025802 0.5072662 0.44373435 -0.061541807 -0.07894977

layer3.bias f4 [2]
00000000: aea5 753d 480f 313d
0.059972458 0.043227464
