LunarPolicy_5000.pth (torch, 75070 bytes, 6 tensors)

layer1.weight f4 [128, 8]
-0.11944952 0.08043412 0.003057966 0.035570044 -0.13331294 0.14814301 0.043293774 -0.04204595
0.057054583 0.24662001 -0.1558824 -0.36801252 -0.016238164 0.18403813 -0.0028146422 0.09709931
0.022966217 0.24762905 0.18482487 -0.39363495 -0.06937952 0.021282332 0.16318464 -0.08769772
0.2758242 0.21341632 -0.21190004 -0.25036055 -0.003784222 0.053325653 0.035567082 0.13552763
-0.06591687 0.0073884283 0.76417863 -0.13527195 0.048294388 -0.10300872 0.1280548 -0.14191523
0.03487225 0.17030983 -0.048389282 -0.47349137 -0.02058744 0.19582485 -0.008725557 0.13489719
-0.07949901 0.019065954 0.4351126 -0.026880993 0.19016457 -0.37294418 0.11717091 -0.06928587
0.037345886 -0.028995106 -0.25906095 0.19436966 0.08716563 0.039968625 0.0776243 -0.11704083
-0.059497815 -0.026214793 0.06716867 0.09520486 -0.047640584 0.21912861 0.22899462 -0.48024493
-0.014574008 0.17972535 0.036388196 -0.4694048 -0.05729408 0.11349872 -0.012179117 0.14793213
-0.10674215 -0.0047061457 -0.16006371 0.12969711 0.099578746 -0.18207747 -0.1568112 0.118187
0.028275847 0.1930391 -0.035079367 -0.42517704 -0.030283527 0.22596574 0.04701734 0.0573638
-0.013149804 -0.10938421 -0.008887144 0.03636909 -0.05559674 -0.2938229 0.015874358 0.06335719
-0.016703622 -0.0044363597 -0.019870473 0.00027279102 1.4253342 -0.07869598 0.13578685 -0.13255557
0.16850346 0.13472664 0.07532878 0.22938779 -0.20877148 0.13758732 0.09587802 -0.24144562
-0.0019174305 -0.005836296 0.017211515 0.14592233 -0.09825312 0.27979398 0.1676258 -0.18105991
0.0029720075 0.036644883 -0.20096059 -0.034965575 -0.50736964 -0.16082062 0.07801129 0.1397145
-0.08134946 0.09010376 -0.04468453 -0.3418794 -0.06279472 0.1969875 0.10416433 0.06416612
-0.092296064 0.16008729 0.12562516 0.2331665 -0.17608528 -0.18039407 -0.2797231 -0.060314327
-0.20652404 0.101021335 -0.081183 0.1867118 0.31477898 0.32283744 0.20467524 -0.0854389
0.23491324 0.16508366 -0.3654919 0.36264992 0.06974622 -0.011849643 -0.11138731 0.12143409
0.09264948 0.10700254 0.10364199 0.0024915584 -0.25721034 -0.32241288 -0.34541565 0.07049717
0.005809626 0.3007605 -0.11596008 -0.44077885 -0.10991997 0.4565108 0.041664224 0.05418659
-1.1145338 -0.033201203 -0.49933538 0.043526538 0.069387 -0.13871324 0.047275685 -0.033795834
0.106948905 -0.02232732 0.098683834 -0.4446319 -0.048116446 0.12906858 0.03247359 0.0818932
0.0024361596 0.16525172 0.06605037 -0.35642213 -0.07338393 0.07465124 0.03355789 0.097454146
0.108518906 0.119725965 -0.14161329 -0.36861727 -0.23372494 0.27967915 -0.049498115 0.13637388
0.19661523 0.2056267 -0.30325037 -0.1685026 -0.022968486 0.021613462 -0.27246433 0.04067858
0.044710867 -0.10042109 -0.031561937 0.0048726164 -0.149152 0.089930825 0.10355338 -0.14022873
-0.08856333 0.11920553 -0.02934353 -0.37780508 -0.033092637 0.21004368 0.15442543 0.051284242
0.26997942 0.04219598 0.20424627 0.169267 -0.44864646 -0.14722282 0.034576792 0.07203551
0.01744356 0.008891582 0.022781596 -0.008361895 -1.598257 0.05710786 0.08127561 -0.101023406
00000000: f3a1 f4bd a5ba a43d 2868 483b e5b1 113d
00000010: 3083 08be cdb2 173e d054 313d 6038 2cbd
00000020: 11b2 693d f589 7c3e a39f 1fbe 236c bcbe
00000030: e605 85bc 7e74 3c3e dc75 38bb 01dc c63d
00000040: a623 bc3c 7892 7d3e bb42 3d3e 858a c9be
00000050: da16 8ebd 4958 ae3c e019 273e dd9a b3bd
00000060: d438 8d3e cf89 5a3e 53fc 58be 422f 80be
00000070: b600 78bb 006c 5a3d caae 113d c1c7 0a3e
00000080: 6dff 86bd a11a f23b 36a1 433f bb84 0abe
00000090: 56d0 453d 3cf6 d2bd cc20 033e 3a52 11be
000000a0: 34d6 0e3d b365 2e3e d733 46bd 766d f2be
000000b0: fea6 a8bc 4f86 483e a3f5 0ebc 7d22 0a3e
000000c0: 61d0 a2bd 3430 9c3c 14c7 de3e 8735 dcbc
000000d0: 80ba 423e 8af2 bebe 4df7 ef3d c0e5 8dbd
000000e0: 00f8 183d 2587 edbc a3a3 84be d708 473e
000000f0: e583 b23d 24b6 233d 7df9 9e3d 1ab3 efbd
00000100: fbb3 73bd 68c0 d6bc ba8f 893d c4fa c23d
00000110: c622 43bd 4063 603e 917d 6a3e aae2 f5be
00000120: d2c7 6ebc ec09 383e ca0b 153d d355 f0be
00000130: 32ad 6abd 0472 e83d eb8a 47bc 857b 173e
00000140: a19b dabd 0336 9abb bee7 23be 52cf 043e
00000150: f1ef cb3d 8472 3abe 1d93 20be 070c f23d
00000160: c0a2 e73c 0bac 453e 62af 0fbd ceb0 d9be
00000170: 2915 f8bc 9063 673e 4195 403d 4ef6 6a3d
00000180: 4772 57bc d404 e0bd 629b 11bc c1f7 143d
00000190: 68b9 63bd f56f 96be f10a 823c 6ac1 813d
000001a0: 09d6 88bc e25e 91bb 67c7 a2bc 6405 8f39
000001b0: 5a71 b63f 5c2b a1bd b50b 0b3e a6bc 07be
000001c0: 2c8c 2c3e c8f5 093e fa45 9a3d a2e4 6a3e
000001d0: 31c8 55be b1e3 0c3e b25b c43d 853d 77be
000001e0: 4b52 fbba 663e bfbb 2aff 8c3c aa6c 153e
000001f0: ef38 c9bd 2841 8f3e 19a6 2b3e c567 39be
00000200: 03c6 423b f218 163d 9dc8 4dbe 1038 0fbd
00000210: fae2 01bf 29ae 24be 62c4 9f3d 5111 0f3e
00000220: 8c9a a6bd 5288 b83d 2007 37bd d10a afbe
00000230: 859a 80bd 17b7 493e 1c54 d53d 8769 833d
00000240: b805 bdbd eced 233e e2a3 003e 33c3 6e3e
00000250: b34f 34be 39b9 38be de37 8fbe 280c 77bd
00000260: 0a7b 53be 46e4 ce3d 4643 a6bd 6131 3f3e
00000270: b62a a13e f34a a53e 6396 513e 97fa aebd
00000280: 198d 703e b10b 293e c121 bbbe 40ad b93e
00000290: 1bd7 8e3d 0125 42bc 081f e4bd 70b2 f83d
000002a0: 03bf bd3d 2624 db3d 4042 d43d 6a49 233b
000002b0: 13b1 83be 4d13 a5be 52da b0be d260 903d
000002c0: ad5e be3b 48fd 993e 7a7c edbd c4ad e1be
000002d0: b91d e1bd c9bb e93e 1ba8 2a3d c2f2 5d3d
000002e0: 0ba9 8ebf fcfd 07bd e3a8 ffbe e248 323d
000002f0: c51a 8e3d d80a 0ebe 26a4 413d 806d 0abd
00000300: 0708 db3d c9e7 b6bc c01a ca3d cba6 e3be
00000310: c015 45bd 8e2a 043e 0703 053d 9fb7 a73d
00000320: faa7 1f3b bf37 293e 6b45 873d f67c b6be
00000330: 504a 96bd c0e2 983d 0074 093d 0a96 c73d
00000340: 293f de3d e332 f53d 1303 11be 67bb bcbe
00000350: 9755 6fbe 1b32 8f3e 89be 4abd 98a5 0b3e
00000360: 8155 493e ce8f 523e a243 9bbe f28b 2cbe
00000370: 6828 bcbc b70e b13c 7280 8bbe 959e 263d
00000380: be22 373d 93a9 cdbd 1747 01bd 78aa 9f3b
00000390: 4dbb 18be a72d b83d cb13 d43d 1f98 0fbe
000003a0: b160 b5bd 0722 f43d d861 f0bc ab6f c1be
000003b0: 258c 07bd b115 573e b321 1e3e 6d0f 523d
000003c0: be3a 8a3e b1d5 2c3d ef25 513e 5454 2d3e
000003d0: fdb4 e5be 94c1 16be 65a0 0d3d 5a87 933d
000003e0: cce5 8e3c ffad 113c 78a0 ba3c 5400 09bc
000003f0: af93 ccbf eee9 693d d473 a63d 5ce5 cebd

layer1.bias f4 [128]
0.16879809 0.29916164 0.065956324 0.011567379 -0.0047965106 0.21676339 -0.056184165 0.16491112
0.17010586 0.17156881 0.13038233 0.21685718 0.15064436 0.002205908 0.077036925 0.17656475
0.07783052 0.20948519 0.039374944 0.086955786 0.14264841 -0.005779623 0.24708346 -0.019067764
-0.0007740899 0.15487961 -0.039030883 0.016110195 0.15581201 0.19480011 0.0816963 -0.004762822
0.13931303 0.055076484 0.010713032 0.19426891 -0.009754589 0.011308976 0.085333444 0.25197032
-0.0257194 0.0014676659 -0.055084325 0.08502582 0.11410205 -0.010026165 0.073298894 0.008156443
0.12867866 0.05210097 0.0053433813 0.0022697004 0.15886994 0.021409385 0.13814354 0.0028046088
-0.029983494 0.013651364 0.33041438 0.10655814 0.09817799 0.3036902 0.058543928 0.14297263
-0.06851264 -0.11555778 0.046024952 0.084401004 0.08890426 -0.0046889605 0.106668025 -0.00010150854
0.09702832 0.12410495 0.20911086 0.200695 0.008727817 0.20748208 0.06131064 -0.07521991
-0.003408661 0.13456152 0.13585456 0.00063123077 -0.0073358016 0.0015038043 -0.104065545 -0.15460952
0.04231182 0.0028854467 0.15301897 0.0028143388 0.120323054 -0.040554248 0.115531676 0.13533452
-0.023901027 -0.008349663 0.00457063 -0.04222851 0.019283975 0.15988865 -0.0063950703 -0.07911203
0.09297745 -0.076067835 0.2947914 -0.0324238 0.30563405 -0.12384709 0.38849902 0.035193197
-0.0038730777 0.080374554 0.12819286 -0.032096162 0.10269258 0.070304394 -0.11235495 0.1824783
0.20186369 0.09686278 -0.012077925 0.11317002 -0.08741194 -0.014530787 0.11450976 0.052416187
00000000: 68d9 2c3e b72b 993e 1c14 873d 1b85 3d3c
00000010: 0c2c 9dbb 39f7 5d3e 5e21 66bd 76de 283e
00000020: 3b30 2e3e bcaf 2f3e f282 053e cf0f 5e3e
00000030: 8442 1a3e ff90 103b 89c5 9d3d 64cd 343e
00000040: 9c65 9f3d 4983 563e 9f47 213d e015 b23d
00000050: 6d12 123e fe62 bdbb 7203 7d3e 0034 9cbc
00000060: 4bec 4aba c398 1e3e d9de 1fbd 87f9 833c
00000070: 2f8d 1f3e ae79 473e 6450 a73d 7211 9cbb
00000080: 13a8 0e3e e197 613d b785 2f3c 6eee 463e
00000090: b6d1 1fbc 4949 393c 4dc3 ae3d 4102 813e
000000a0: 7eb1 d2bc b25e c03a 1aa0 61bd 0422 ae3d
000000b0: 56ae e93d c944 24bc bb1d 963d 9aa2 053c
000000c0: 57c4 033e d467 553d 8817 af3b 41bf 143b
000000d0: cdae 223e bc62 af3c 8075 0d3e 87cd 373b
000000e0: f29f f5bc f8a9 5f3c 132c a93e 273b da3d
000000f0: 8b11 c93d 487d 9b3e c2cb 6f3d 6b67 123e
00000100: 5b50 8cbd 8fa9 ecbd a984 3c3d 6fda ac3d
00000110: 7013 b63d daa5 99bb c474 da3d fce0 d4b8
00000120: c9b6 c63d bc2a fe3d 2821 563e fd82 4d3e
00000130: 1eff 0e3c 2f76 543e de20 7b3d e50c 9abd
00000140: d863 5fbb 7fca 093e 751d 0b3e 2e79 253a
00000150: 2a61 f0bb 4d1b c53a 5120 d5bd f551 1ebe
00000160: 294f 2d3d c319 3d3b 01b1 1c3e c570 383b
00000170: ef6b f63d 361c 26bd df9b ec3d 2295 0a3e
00000180: 16cc c3bc 06cd 08bc 39c5 953b cdf7 2cbd
00000190: 6df9 9d3c dab9 233e bd8d d1bb 7d05 a2bd
000001a0: f66a be3d 74c9 9bbd e6ee 963e d2ce 04bd
000001b0: 117c 9c3e 8ba3 fdbd 58e9 c63e be26 103d
000001c0: 76d3 7dbb 6a9b a43d fd44 033e 4477 03bd
000001d0: 7d50 d23d c0fb 8f3d 5a1a e6bd 97db 3a3e
000001e0: 5bb5 4e3e fe5f c63d 7de2 45bc afc5 e73d
000001f0: 0805 b3bd 8a12 6ebc 1884 ea3d 5bb2 563d

layer2.weight f4 [128, 128]
0.08428824 0.061715122 0.021713464 -0.046883475 -0.56442684 0.058991853 -0.47207847 0.2016107
0.18735689 0.05475725 0.11646907 0.07538722 0.10222354 -1.1671499 0.12774049 0.16223156
-0.39102393 0.10899936 0.10963166 0.21503946 0.11934875 0.16977191 0.07400255 0.56079423
-0.07482735 0.039774027 -0.016015364 -0.18039408 0.18037601 0.10434503 0.27761555 -1.1218598
0.05256284 0.1651907 -0.1638031 0.13904975 -0.10899564 -0.17743558 0.119926676 0.10577157
-0.13274623 -0.31364396 0.23367378 0.16157594 0.19015276 -0.1654027 0.07744418 -0.29068488
0.01957171 0.010459369 -0.1482707 -0.1397914 0.08794715 0.22853792 0.04182729 -0.16129291
-0.089346 -0.073204 0.10932408 -0.15405379 0.023671564 0.12535353 0.3075433 0.06460855
0.17156732 0.2101759 0.29939753 0.2470535 -0.052351713 -0.29667145 0.06899708 -0.69375396
0.14576118 0.45673212 0.048929904 0.21119441 0.13081485 0.057122905 -0.03795473 0.45048884
-0.3553673 0.04522882 0.1223235 -0.16898184 -0.63248533 -0.19646142 0.18225281 -0.18367013
0.30447304 -0.6368696 0.35449126 -0.18822075 -0.120344006 0.45431873 0.028399311 0.055238813
-0.13821459 0.014361238 -0.511329 0.16403213 0.24063273 0.06327144 -0.2139696 0.06526175
0.41841522 0.30177182 0.10088085 0.01714194 0.076548345 0.25091988 0.078974575 0.38948667
0.5385947 -0.1325963 0.07190001 -0.48146588 0.029134203 0.151112 0.38003024 0.29069534
0.1280316 0.18216857 -0.39364597 0.281579 0.33805963 0.15735538 0.19872306 0.24487409
0.008098155 0.091360524 0.11695834 0.12418849 0.46207356 0.09635478 0.22045872 -0.12953979
-0.077540234 0.12138165 -0.08550586 0.12551606 -0.1375617 0.89836156 -0.081012644 -0.0310878
0.29363722 0.1052614 -0.097320974 -0.13407952 -0.05792888 -0.17325878 0.075751424 -0.3354759
0.23049079 0.06672659 0.19702515 0.1976772 -0.059474643 0.10000654 -0.24595906 0.6368466
0.10782639 -0.13234042 0.23870106 -0.06901662 0.19510575 0.23745793 -0.042259473 0.093204156
0.24259019 0.32899702 -0.11213665 -0.12573563 -0.1299372 0.15363204 -0.081237875 0.23275931
0.08953191 -0.017305618 0.20706646 0.21251728 0.104993 -0.1824931 0.052660838 0.19895177
0.20196173 0.09092553 0.11359122 0.11656214 0.008088534 0.11200321 -0.28903016 -0.05862059
-0.11064843 -0.11677549 -0.25701436 -0.18726513 0.21045119 0.40832478 0.089329354 0.48458526
-0.004158598 -0.21632516 0.0755532 -0.16619658 -0.12102847 0.08720015 0.17018025 -0.37163934
0.34309778 0.08461797 -0.05310978 0.32215345 0.46924847 0.17049761 -0.18496445 0.24860343
-0.22300112 0.46561718 -0.16417697 0.31053728 0.17064986 -0.32889274 0.10171906 0.11742181
0.20920269 0.1260373 0.34926474 -0.13509104 -0.25431144 0.16298182 0.1837246 -0.087378904
-0.2691321 -0.24350683 0.0896759 -0.0020942 0.15345022 -0.20933634 0.12122512 -0.17135568
-0.2615848 0.122868866 0.13484374 0.42481133 0.12942758 -0.07580656 -0.26624256 -0.13237892
0.05926677 -0.06782334 0.447547 -0.10878968 -0.20219375 -0.1526045 -0.062207382 -0.1520893
00000000: 509f ac3d ffc8 7c3d 6fe0 b13c e308 40bd
00000010: 477e 10bf 71a1 713d 45b4 f1be 0973 4e3e
00000020: 7cda 3f3e 2349 603d 5687 ee3d 9d64 9a3d
00000030: 935a d13d 2b65 95bf 67ce 023e 0820 263e
00000040: 4a34 c8be 0e3b df3d 9086 e03d 4e33 5c3e
00000050: 1e6d f43d b0d8 2d3e a68e 973d 3690 0f3f
00000060: 153f 99bd 17ea 223d a732 83bc 3ab9 38be
00000070: 7db4 383e d9b2 d53d a023 8e3e 1a99 8fbf
00000080: 224c 573d c027 293e 00bc 27be 0f63 0e3e
00000090: 1b39 dfbd acb1 35be 1e9c f53d c49e d83d
000000a0: a1ee 07be f195 a0be 2e48 6f3e 2a74 253e
000000b0: 68b7 423e 535f 29be 0e9b 9e3d a6d4 94be
000000c0: da54 a03c c65d 2b3c 46d4 17be 7a25 0fbe
000000d0: a31d b43d d805 6a3e 1853 2b3d f829 25be
000000e0: 09fb b6bd fbeb 95bd 4ee5 df3d 47c0 1dbe
000000f0: deea c13c ad5c 003e 5176 9d3e 7d51 843d
00000100: 58af 2f3e 5a38 573e a24a 993e 98fb 7c3e
00000110: c06e 56bd 52e5 97be 574e 8d3d dc99 31bf
00000120: 6b42 153e cbd8 e93e b96a 483d 5943 583e
00000130: 54f4 053e b5f9 693d 6b76 1bbd 79a6 e63e
00000140: b4f2 b5be db41 393d be84 fa3d 9309 2dbe
00000150: 8fea 21bf 2f2d 49be 7ba0 3a3e 0614 3cbe
00000160: e4e3 9b3e e309 23bf e17f b53e f1bc 40be
00000170: eb76 f6bd 779c e83e aca5 e83c 1842 623d
00000180: 2088 0dbe 664b 6b3c 75e6 02bf 0af8 273e
00000190: 6d68 763e 7594 813d d91a 5bbe f4a7 853d
000001a0: 853a d63e d681 9a3e 9e9a ce3d 416d 8c3c
000001b0: 61c5 9c3d 9278 803e 6cbd a13d cc6a c73e
000001c0: 58e1 093f 53c7 07be 5040 933d b282 f6be
000001d0: daaa ee3c 1bbd 1a3e 5393 c23e 05d6 943e
000001e0: b71a 033e 668a 3a3e f78b c9be 1f2b 903e
000001f0: 2716 ad3e c521 213e 0f7e 4b3e 46c0 7a3e
00000200: 20ae 043c 3a1b bb3d db87 ef3d 8956 fe3d
00000210: e894 ec3e a855 c53d eebf 613e 14a6 04be
00000220: 6acd 9ebd f196 f83d b21d afbd 4887 003e
00000230: f9dc 0cbe 06fb 653f f5e9 a5bd d8ab febc
00000240: 9e57 963e 4a93 d73d 3850 c7bd 244c 09be
00000250: d546 6dbd c06a 31be 9023 9b3d 7fc3 abbe
00000260: c705 6c3e f3a7 883d f6c0 493e e46b 4a3e
00000270: af9b 73bd 3bd0 cc3d b1dc 7bbe 6108 233f
00000280: 15d4 dc3d 3f84 07be 0d6e 743e 9658 8dbd
00000290: cdc9 473e 2c28 733e 4518 2dbd d2e1 be3d
000002a0: 9069 783e 4c72 a83e e6a7 e5bd d7c0 00be
000002b0: 420e 05be b851 1d3e 0b60 a6bd 7558 6e3e
000002c0: 825c b73d 83c4 8dbc 3b09 543e 219e 593e
000002d0: 9206 d73d 79df 3abe e4b2 573d 03ba 4b3e
000002e0: 0ecf 4e3e 2a37 ba3d 83a2 e83d 22b8 ee3d
000002f0: c585 043c f061 e53d c3fb 93be 251c 70bd
00000300: a59b e2bd fd27 efbd 6397 83be 6ec2 3fbe
00000310: 8480 573e f20f d13e 4ff2 b63d 8f1b f83e
00000320: d944 88bb 5884 5dbe a3bb 9a3d 702f 2abe
00000330: c6dd f7bd fe95 b23d bb43 2e3e 8347 bebe
00000340: 83aa af3e 304c ad3d a489 59bd 4cf1 a43e
00000350: 5641 f03e ed96 2e3e 5267 3dbe e691 7e3e
00000360: 685a 64be 6065 ee3e 021e 28be befe 9e3e
00000370: d6be 2e3e a164 a8be 1552 d03d d97a f03d
00000380: 3b39 563e ec0f 013e d4d2 b23e 4e55 0abe
00000390: 1c35 82be b5e4 263e 4d22 3c3e b6f3 b2bd
000003a0: afcb 89be db59 79be 00a8 b73d d93e 09bb
000003b0: 0e22 1d3e 445c 56be e044 f83d dd77 2fbe
000003c0: 71ee 85be aca2 fb3d 7a14 0a3e df80 d93e
000003d0: aa88 043e 7840 9bbd f250 88be 578e 07be
000003e0: b6c1 723d f7e6 8abd e124 e53e 20cd debd
000003f0: e10b 4fbe 5b44 1cbe 2bcd 7ebd 4cbd 1bbe

layer2.bias f4 [128]
0.11549254 0.062013987 0.10236236 0.07743561 0.10736293 0.08840542 0.088619374 0.05617147
0.08251481 0.14287162 0.079504415 0.082176454 0.10002043 0.07773962 -0.097708285 0.056256372
0.07880054 0.082065836 0.092131205 0.07490992 0.0886915 0.07251361 0.093228474 0.07377811
0.06431495 0.0866485 0.05523334 0.10526764 0.15747619 0.088712536 0.13690712 0.07021633
0.10630675 0.07764769 0.07290429 0.14698863 -0.0022381542 0.08816134 0.07270475 0.062220056
0.040469788 0.08461499 0.11261988 0.10398925 0.03324085 0.024448853 0.056925766 0.0741227
-0.0063441535 0.084096424 -0.00982519 0.08097776 0.071469665 0.07758379 0.093034044 0.090490356
0.10784957 0.08297881 0.05763258 0.107431084 0.07387247 0.0801221 0.11713817 0.09199401
0.0716287 0.10894122 0.084143996 0.08005132 0.076272145 0.0627861 0.08761936 0.07698181
0.0910696 0.11489248 0.073009074 0.08322727 0.10027298 -0.00306748 0.009495383 0.081352055
0.059132606 0.13387199 0.15766062 0.07592003 0.04101673 0.11120581 0.13456975 0.07865066
0.07845636 0.09326478 0.08840318 0.07528162 0.09688225 0.08859924 0.092132986 0.07872535
0.10180768 0.09207565 0.07409297 0.08761302 -0.0075655445 0.095419094 0.08226406 0.1358024
0.110744014 0.0798844 0.1456527 0.061746374 0.06608094 0.07050771 0.08203414 -0.011806532
0.11683592 0.07692108 0.080596425 0.1299463 0.07593826 0.059019193 0.06783088 0.072764196
0.07764585 0.06457965 0.04247719 0.045269474 0.08990589 0.09419477 0.061399408 -0.012615271
00000000: 5a87 ec3d 6102 7e3d 5ba3 d13d 9096 9e3d
00000010: 19e1 db3d e70d b53d 137e b53d 0e14 663d
00000020: 86fd a83d f04c 123e 36d3 a23d 214c a83d
00000030: 83d7 cc3d f335 9f3d 481b c8bd 156d 663d
00000040: 2d62 a13d 2212 a83d 49af bc3d 5f6a 993d
00000050: e4a3 b53d 0482 943d 92ee be3d fa18 973d
00000060: 8eb7 833d c574 b13d 5b3c 623d 8f96 d73d
00000070: 7041 213e ebae b53d 6131 0c3e 94cd 8f3d
00000080: 5ab7 d93d c105 9f3d d84e 953d 3084 163e
00000090: ffad 12bb ef8d b43d 3ae6 943d 75da 7e3d
000000a0: a6c3 253d a04a ad3d 40a5 e63d 51f8 d43d
000000b0: 8f27 083d f648 c83c fe2a 693d a4cd 973d
000000c0: 9ee2 cfbb bf3a ac3d d5f9 20bc abd7 a53d
000000d0: b05e 923d 40e4 9e3d a288 be3d 0253 b93d
000000e0: 3ce0 dc3d cbf0 a93d 2410 6c3d d404 dc3d
000000f0: 734a 973d 0e17 a43d 23e6 ef3d 5b67 bc3d
00000100: 11b2 923d 931c df3d b053 ac3d f2f1 a33d
00000110: 9234 9c3d 0096 803d c771 b33d a4a8 9d3d
00000120: b382 ba3d c04c eb3d c885 953d 0f73 aa3d
00000130: ec5b cd3d c607 49bb 8692 1b3c e89b a63d
00000140: 0835 723d bd15 093e c971 213e f67b 9b3d
00000150: 2901 283d dfbf e33d a7cc 093e 9913 a13d
00000160: baad a03d 9b01 bf3d ba0c b53d 402d 9a3d
00000170: 336a c63d 8573 b53d 38b0 bc3d c23a a13d
00000180: 8c80 d03d 2992 bc3d 0ebe 973d 746e b33d
00000190: 63e8 f7bb 166b c33d 0f7a a83d c90f 0b3e
000001a0: c2cd e23d 6f9a a33d fb25 153e c4e9 7c3d
000001b0: 7255 873d 5966 903d 8401 a83d 2f70 41bc
000001c0: ac47 ef3d cd88 9d3d bd0f a53d a510 053e
000001d0: 8585 9b3d 1cbe 713d ebea 8a3d 6505 953d
000001e0: ca04 9f3d 5642 843d 90fc 2d3d 7c6c 393d
000001f0: 9420 b83d 30e9 c03d f27d 7b3d 48b0 4ebc

layer3.weight f4 [4, 128]
-0.37648493 0.28475085 0.35980853 0.31433284 -0.31317198 0.3852924 -0.18541846 -0.1388936
-0.16984943 -0.5552173 -0.32014284 -0.2531887 -0.2767497 -0.14748165 -0.11113041 -0.12259207
-0.26670116 -0.30944422 -0.19853905 -0.18891391 -0.3526345 0.3155126 -0.31385958 -0.16538979
-0.1237603 -0.27892935 0.34339696 -0.7521833 -0.90867716 -0.27858987 -0.47340435 -0.11523712
-0.44399 -0.18144472 0.28771254 -0.5353032 0.0033671916 0.33883503 0.3067167 0.28244662
0.73395264 0.36969256 0.53505063 -0.370487 0.40830535 0.5326852 0.26562068 0.41366765
-0.000723738 -0.15429394 -0.0037064555 -0.14818695 -0.1409194 -0.17303754 0.32024983 0.45539743
0.42091838 -0.40726727 0.33803692 -0.5001346 -0.20480289 0.31739587 -0.242306 0.36017698
0.36682624 -0.29066437 0.30009827 0.20927012 -0.2540845 0.29609007 -0.2820469 0.35903528
0.92594117 1.7911054 -0.23021325 0.30278692 0.52238834 -0.5459189 0.38481453 0.33181205
0.32091847 -0.40386465 -0.41411847 -0.42513114 -0.19617707 0.53883487 0.81756324 0.3350178
0.29132923 -0.36789024 0.3195855 -0.31101045 0.32098395 0.42127648 0.36581892 -0.16880223
-0.2632518 -0.19041002 0.3484168 -0.29408875 -0.005289435 -0.33684546 0.5338397 -0.95081455
-0.35817108 -0.36210907 -0.7677058 0.27881002 0.5008377 -0.48583463 -0.23285905 0.0027417643
-0.35430044 0.3684019 -0.15743093 -0.22635455 -0.35924304 0.43736827 0.38602516 -0.16352311
0.31289023 0.3377603 0.4579212 0.03827466 -0.36729652 0.43795627 0.33413988 0.0013975127
-0.38172644 0.29308504 0.27319625 0.27625844 -0.2656755 0.33192846 -0.1694921 -0.114919245
-0.15398373 -0.42773762 -0.2792481 -0.18465814 -0.20761074 -0.13232273 0.5636901 -0.1024942
-0.25763783 -0.27996376 -0.18377824 -0.22542226 -0.37352926 0.2825884 -0.3007152 -0.14835782
-0.103914015 -0.24160923 0.4263676 -0.616025 -0.4915974 -0.24998994 -0.66296834 -0.11785855
-0.3444059 -0.16399603 0.25245684 -0.5359363 0.008416359 0.24653846 0.28398448 0.26618648
0.5691428 0.35967702 0.7587657 -0.37455213 0.27225012 0.67741495 0.2285897 0.5040264
-0.008543767 -0.1618797 -0.008636518 -0.1300192 -0.11891491 -0.11819657 0.26874217 0.5109976
0.34160283 -0.33176294 0.36481318 -0.4694717 -0.14233668 0.26296148 -0.21129322 0.31341878
0.3925991 -0.22058429 0.25727305 0.16464262 -0.2426748 0.292258 -0.24734615 0.32438487
0.965895 0.46496922 -0.2106579 0.24459012 0.5814204 -0.5394147 0.40062842 0.26442578
0.32798845 -0.62955827 -0.42598557 -0.31014723 0.37710243 0.5956688 0.80135083 0.32515955
0.22775637 -0.31925616 0.28309554 -0.25670892 0.24488623 0.50493836 0.3250326 -0.16637018
-0.24450022 -0.14003664 0.3700395 -0.26447108 0.006450941 -0.291025 0.6449334 -1.5527287
-0.2660841 -0.31170818 -1.3396577 0.24667779 0.53039205 -0.33874077 -0.21717983 0.0051321895
-0.3261181 0.42785686 -0.1621414 -0.1497933 -0.33564174 0.5097677 0.38487414 -0.15460578
0.27014208 0.33938286 0.6151862 0.09875669 -0.26862323 0.4315932 0.36762443 -0.008358222
00000000: a2c2 c0be ddca 913e d338 b83e 3cf0 a03e
00000010: 1458 a0be 0c45 c53e 56de 3dbe 203a 0ebe
00000020: 02ed 2dbe b922 0ebf c3e9 a3be f3a1 81be
00000030: 23b2 8dbe 6e05 17be 5798 e3bd 8d11 fbbd
00000040: 0e8d 88be 796f 9ebe d24d 4bbe a672 41be
00000050: 828c b4be de8a a13e 34b2 a0be f15b 29be
00000060: 0a76 fdbd d4cf 8ebe bad1 af3e 168f 40bf
00000070: 119f 68bf 55a3 8ebe 0e62 f2be 7001 ecbd
00000080: a852 e3be a5cc 39be 0f4f 933e a109 09bf
00000090: 1aac 5c3b c97b ad3e f909 9d3e d89c 903e
000000a0: 52e4 3b3f 5848 bd3e 14f9 083f 79b0 bdbe
000000b0: 660d d13e 0f5e 083f 6fff 873e 3fcc d33e
000000c0: 3cb9 3dba 3bff 1dbe 01e8 72bb 52be 17be
000000d0: 2d4d 10be c130 31be c9f7 a33e da29 e93e
000000e0: 9d82 d73e 5685 d0be 2d13 ad3e d208 00bf
000000f0: d9b7 51be b681 a23e 101f 78be 1e69 b83e
00000100: a6d0 bb3e f6d1 94be 7ba6 993e e84a 563e
00000110: 5d17 82be 1e99 973e 7468 90be 79d3 b73e
00000120: 7b0a 6d3f f142 e53f 06bd 6bbe e306 9b3e
00000130: 3ebb 053f 57c1 0bbf 6906 c53e 45e3 a93e
00000140: 6d4f a43e 59c7 cebe 5607 d4be caaa d9be
00000150: a4e2 48be 15f1 093f d34b 513f 7487 ab3e
00000160: 1b29 953e 1c5c bcbe b6a0 a33e c33c 9fbe
00000170: 0258 a43e 8db1 d73e 9e4c bb3e 7eda 2cbe
00000180: f1c8 86be d8fa 42be b063 b23e cd92 96be
00000190: ff52 adbb 0277 acbe b8a9 083f 9568 73bf
000001a0: 3362 b7be 5c66 b9be 5e88 44bf 30c0 8e3e
000001b0: e636 003f 51bf f8be 9a72 6ebe 2caf 333b
000001c0: de66 b5be 2d9f bc3e 9335 21be 7dc9 67be
000001d0: b4ee b7be bcee df3e 17a5 c53e 9a72 27be
000001e0: 2633 a03e ebee ac3e a674 ea3e e4c5 1c3d
000001f0: 4a0e bcbe ce3b e03e 6214 ab3e bf2c b73a
00000200: a671 c3be 3e0f 963e 61e0 8b3e bf71 8d3e
00000210: 9e06 88be 87f2 a93e 568f 2dbe c85a ebbd
00000220: e9ad 1dbe 6d00 dbbe 9bf9 8ebe 0617 3dbe
00000230: e997 54be 9c7f 07be ff4d 103f 7be8 d1bd
00000240: 1be9 83be 6957 8fbe 5d30 3cbe 18d5 66be
00000250: 3a3f bfbe 6daf 903e 58f7 99be 1deb 17be
00000260: dfd0 d4bd 6968 77be db4c da3e d0b3 1dbf
00000270: a8b2 fbbe 5dfd 7fbe 4bb8 29bf d35f f1bd
00000280: f855 b0be 93ee 27be 0642 813e 1f33 09bf
00000290: c5e4 093c 9474 7c3e 6a66 913e 9849 883e
000002a0: 58b3 113f 9627 b83e 783e 423f 4cc5 bfbe
000002b0: 5e64 8b3e 116b 2d3f 6b13 6a3e e007 013f
000002c0: 28fb 0bbc cbc3 25be 2f80 0dbc c123 05be
000002d0: a989 f3bd 0b11 f2bd 9398 893e bdd0 023f
000002e0: 91e6 ae3e d5dc a9be cbc8 ba3e 985e f0be
000002f0: b5c0 11be e3a2 863e 405d 58be 6d78 a03e
00000300: c002 c93e d9e0 61be 4bb9 833e 1398 283e
00000310: be7f 78be d7a2 953e 4f48 7dbe c615 a63e
00000320: e544 773f 7210 ee3e b4b6 57be d575 7a3e
00000330: f8d7 143f 1517 0abf 2b1f cd3e d162 873e
00000340: 1aee a73e bb2a 21bf c81a dabe 9ecb 9ebe
00000350: 9213 c13e c07d 183f 5425 4d3f 507b a63e
00000360: f738 693e 8b75 a3be e6f1 903e 5a6f 83be
00000370: 75c3 7a3e a443 013f ac6a a63e f25c 2abe
00000380: 445e 7abe c465 0fbe d175 bd3e c168 87be
00000390: 6a62 d33b 3b01 95be 5b1a 253f d0bf c6bf
000003a0: 2d3c 88be 3798 9fbe e779 abbf 1a99 7c3e
000003b0: c6c7 073f 6e6f adbe 6464 5ebe ed2b a83b
000003c0: f4f8 a6be 0e10 db3e 6508 26be 6a63 19be
000003d0: 3cd9 abbe 2380 023f 390e c53e fa50 1ebe
000003e0: 1050 8a3e 97c3 ad3e d87c 1d3f f340 ca3d
000003f0: fc88 89be c9f9 dc3e 4539 bc3e edf0 08bc

layer3.bias f4 [4]
0.16561201 -0.019119425 -0.004369669 -0.00026055967
00000000: 3296 293e 57a0 9cbc 712f 8fbb ba9b 88b9
